python/NN/mnist.pt (torch, 104599 bytes, 8 tensors)

weight f4 [10, 1, 5, 5]
0	0xbdc9e26f	-0.09857642
1	0xbe8edbe1	-0.2790213
2	0x3b90cbc8	0.004418824
3	0xbe88ef68	-0.26745152
4	0xbe616653	-0.2201169
5	0xbc0f49ea	-0.00874565
6	0xbde42b3f	-0.11141061
7	0xbea10ebb	-0.3145655
8	0xbda6f5a1	-0.08152319
9	0xbe97c396	-0.29641408
10	0xbdb67958	-0.08909863
11	0xbdfc0952	-0.12306465
12	0xbe53091e	-0.20608947
13	0xbe4e6a7e	-0.20157811
14	0x3d8ae369	0.06781656
15	0x3dbc32eb	0.09189399
16	0xbe02d68b	-0.12777154
17	0x3eb78d4d	0.3584999
18	0x3e9adc78	0.3024633
19	0x3eae090b	0.33991274
20	0x3d9ca984	0.0764952
21	0x3df26add	0.11836789
22	0x3e22f321	0.15913059
23	0x3e42b7d9	0.19015445
24	0x3e87ebc7	0.2654707
25	0xbe852df2	-0.26011616
26	0xbdd752c9	-0.10513837
27	0x3e426a15	0.1898578
28	0x3e701617	0.23445927
29	0x3e8db02e	0.27673477
30	0x3e627ddf	0.22118329
31	0x3e9d0c6a	0.30673534
32	0x3e648477	0.22316156
33	0x3d676cf9	0.05650041
34	0x3e902004	0.28149426
35	0xbd4784d8	-0.048710674
36	0x3b9ae378	0.0047268234
37	0xbe7ff924	-0.24997383
38	0x3ac6ba3a	0.0015161701
39	0x3dc8da0c	0.09807214
40	0x3d9b7c24	0.07592037
41	0xbda8adb8	-0.08236259
42	0xbe08fa70	-0.13376784
43	0xbea4878f	-0.32134673
44	0xbe724357	-0.236585
45	0xbd34a031	-0.044098083
46	0xbe6b27b4	-0.22964364
47	0xbd1c4c77	-0.03815886
48	0xbdc40082	-0.09570409
49	0xbe3af935	-0.18259127
50	0xbbffbef2	-0.007804745
51	0xbd839b40	-0.06426096
52	0xbe526171	-0.20544983
53	0xbcb0bc83	-0.021574264
54	0xbe5b20a0	-0.21399164
55	0xbd84ee18	-0.06490725
56	0xbe04714f	-0.12933849
57	0xbdb5d749	-0.08878953
58	0xbe87378e	-0.26409572
59	0xbd44b2b8	-0.048022002
60	0x3e153a8d	0.14573117
61	0x3e6efd74	0.23338872
62	0x3ddf30af	0.108979575
63	0x3e147426	0.14497432
64	0xbcbe037f	-0.023195026
65	0x3e11bf66	0.14233169
66	0x3e8b7a16	0.27241582
67	0x3e8eb42d	0.27871838
68	0x3de79bda	0.11309023
69	0x3e675384	0.22590452
70	0xbe915974	-0.2838856
71	0xbe5c03f5	-0.21485884
72	0xbe3dac1f	-0.1852269
73	0x3de37cae	0.11107765
74	0xbe09fa4e	-0.1347439
75	0x3dbba3ac	0.09162077
76	0x3e36ecae	0.17863724
77	0xbe13f087	-0.14447223
78	0xbdfa8ddd	-0.122340895
79	0xbeab5ca5	-0.3346912
80	0x3dc69681	0.09696675
81	0x3e8dd90b	0.27704653
82	0x3d2718bd	0.040795077
83	0xbe8039f4	-0.25044215
84	0xbf0c5998	-0.5482421
85	0x3db3844b	0.08765467
86	0x3eb04e47	0.3443472
87	0x3dabc5b9	0.08387322
88	0x3cbeeb9d	0.023305709
89	0xb8c34989	-9.3120216e-05
90	0xbd263002	-0.040573128
91	0x3dd1124d	0.10208569
92	0x3eceec95	0.40414873
93	0x3e8e9b09	0.27852657
94	0xbe04ced4	-0.12969524
95	0xbc2ae603	-0.010430816
96	0xbd25ab65	-0.040446658
97	0xbdc30a5c	-0.0952346
98	0x3e29f0bf	0.16595744
99	0xba9bd5a2	-0.0011889229
100	0x3e135aa8	0.14390051
101	0xbe4db75a	-0.20089474
102	0xbd893638	-0.066997945
103	0xbd0b9c30	-0.0340845
104	0xbe5c26c9	-0.2149917
105	0xbe8b3628	-0.27189755
106	0xbd4f4f16	-0.05061253
107	0xbe5e5ed7	-0.21715866
108	0xbd84b051	-0.06478942
109	0xbd81c6e2	-0.06336762
110	0xbbe37bab	-0.0069422326
111	0xbe6a2ea0	-0.22869349
112	0x3dd82a18	0.10554904
113	0xbe3400eb	-0.17578475
114	0x3a208e5f	0.00061247306
115	0xbd4c15a9	-0.049825344
116	0x3b8e3534	0.0043398384
117	0xbe4553f1	-0.19270302
118	0x3d90533a	0.07047124
119	0xbe34c5a8	-0.17653525
120	0xbe8cd509	-0.27506283
121	0x3e0fb31d	0.1403317
122	0x3ce7c550	0.028292328
123	0x3df58c51	0.11989654
124	0xbcd6d5b7	-0.026224954
125	0x3eaab218	0.33339
126	0x3d5c7995	0.053826887
127	0x3e74ffac	0.23925656
128	0xbd2857e0	-0.04109943
129	0xbd20252d	-0.039097954
130	0x3e2ffafd	0.17185588
131	0xbad118c3	-0.0015952814
132	0x3e124253	0.14283113
133	0xbe027430	-0.12739635
134	0xbd90206e	-0.070374355
135	0x3e73b186	0.23798189
136	0x3e4fee82	0.20305827
137	0xbbed6eee	-0.00724589
138	0xbd794aeb	-0.060862463
139	0xbe5a26bf	-0.21303843
140	0x3e279bdd	0.16368051
141	0xbe165033	-0.14679031
142	0xbe6adb7d	-0.2293529
143	0xbdfda195	-0.12384335
144	0xbe74426d	-0.23853464
145	0xbe5732a0	-0.21015406
146	0xbe7db572	-0.24776247
147	0xbe2143c5	-0.15748508
148	0xbe01e9d6	-0.12686858
149	0x3deed991	0.11662591
150	0xbc3a8764	-0.011384819
151	0x3d9492e6	0.07254581
152	0xbc67960e	-0.014134897
153	0x3da7768b	0.08176907
154	0xbe09d00e	-0.13458273
155	0x3d12bf40	0.03582692
156	0xbe19059a	-0.14943543
157	0x3d54d781	0.051963333
158	0x3de1b375	0.11020557
159	0xbda8b2b7	-0.08237212
160	0x3d1d8543	0.038457166
161	0xbe651cb0	-0.22374225
162	0xbe737e4d	-0.23778649
163	0xbc226718	-0.009912275
164	0x3ceb7dd3	0.028746521
165	0x3e614d15	0.2200206
166	0xbd3a940c	-0.045551345
167	0x3da91c52	0.08257355
168	0xbc82c9aa	-0.015965302
169	0x3dde81ef	0.108646266
170	0x3ce96b94	0.02849368
171	0x3dc687b5	0.09693853
172	0xbe0267f7	-0.12734972
173	0x3e80013d	0.25000945
174	0x3dbb1761	0.091353185
175	0xbc7b87e7	-0.015352226
176	0xbe3b9afc	-0.1832084
177	0xbe2c7680	-0.16842079
178	0x3d5c0688	0.053717166
179	0x3e48bfaa	0.19604364
180	0xbea19ece	-0.3156647
181	0xbea6a7dc	-0.32549942
182	0xbe392755	-0.1808141
183	0x3ddad4df	0.10685133
184	0x3e8bd071	0.27307466
185	0xbe36a50f	-0.17836402
186	0xbd8f7a81	-0.07005788
187	0xbe0346cd	-0.12819977
188	0x3da6f931	0.08152998
189	0x3ed99a58	0.42500567
190	0xbec42574	-0.38309824
191	0xbe9d14c5	-0.30679908
192	0xbe0255ed	-0.1272809
193	0x3e6c6099	0.23083724
194	0x3eccdd8c	0.40012777
195	0xbe6d646d	-0.2318284
196	0xbe5b1b5e	-0.21397159
197	0x3e35fdd9	0.17772616
198	0x3e2e0409	0.16993727
199	0x3e963e52	0.29344422
200	0xbe069f8c	-0.131468
201	0xbd85cf96	-0.065337345
202	0xbd7c1d21	-0.061551217
203	0xbdf38c9a	-0.11892052
204	0xbe16e46a	-0.1473557
205	0x3e86bb27	0.2631466
206	0xbe525bc3	-0.20542817
207	0x3cd33012	0.025779758
208	0xbe53fc48	-0.20701706
209	0x3defc4aa	0.117074326
210	0xbdda423c	-0.106571645
211	0x3e37e667	0.17958985
212	0xbe0dd3cb	-0.13850324
213	0x3d9ba8de	0.07600568
214	0x3e3a219a	0.1817688
215	0x3b86645c	0.0041013192
216	0x3e3a2538	0.1817826
217	0x3d0e906d	0.034805704
218	0xbe072887	-0.13199054
219	0x3e96135e	0.2931165
220	0x3e26b7b3	0.16281013
221	0x3e8f12f6	0.27944154
222	0x3e40ba8f	0.18821166
223	0x3e3c3033	0.18377762
224	0x3e1d6397	0.15370022
225	0x3e021b82	0.12705806
226	0xbe684d7b	-0.22685806
227	0xbc9ea8ae	-0.019367542
228	0x3bfa451b	0.0076376325
229	0x3e777afc	0.24168009
230	0x3cc5c45c	0.024141483
231	0xbd643071	-0.05571026
232	0xbd778377	-0.06042811
233	0xbe92939d	-0.28628245
234	0xbe7beaa9	-0.24601234
235	0xbe64bc52	-0.22337463
236	0xbd690d88	-0.05689767
237	0xbe50d360	-0.20393133
238	0x3bfaa9ea	0.00764965
239	0xbe5cd5bb	-0.21565907
240	0xbc5cac3c	-0.013468798
241	0xbdedf2e2	-0.11618592
242	0x3d33ea2f	0.043924507
243	0x3a23d4f7	0.0006249691
244	0xbdbac911	-0.091203816
245	0x3e0c892d	0.13724203
246	0xbd6d7a92	-0.05797822
247	0x3d688c5e	0.05677449
248	0x3e4a008a	0.19726768
249	0x3e0ee0a0	0.13952875

bias f4 [10]
0	0xbde1588f	-0.11003219
1	0xbda434ac	-0.08017859
2	0x3d75dab7	0.060023036
3	0xbe00e09d	-0.12585683
4	0x3e1d4f35	0.15362246
5	0xbe0ced4c	-0.13762397
6	0x3dbd6966	0.09248619
7	0xbdba094d	-0.09083805
8	0x3cbbeb8a	0.022939462
9	0x3e0d8a43	0.13822274

weight f4 [20, 10, 5, 5]
0	0xbccf4bcc	-0.025304697
1	0x3d795bf1	0.060878698
2	0x3d7a2d43	0.06107832
3	0xbd22e7ca	-0.039771833
4	0x3cdd8feb	0.027046164
5	0x3d83f88c	0.06443891
6	0xbd2d53b9	-0.042316172
7	0x3d963659	0.07334585
8	0x3c47b235	0.012188484
9	0x3cfa4e42	0.030554894
10	0xbd202a9c	-0.039103135
11	0xbd3d8682	-0.046270855
12	0x3caea38b	0.021318218
13	0xbca1489e	-0.019687947
14	0x3c025005	0.007953648
15	0xbb721149	-0.0036936572
16	0x3c3a7cf6	0.011382332
17	0xbc6c7e18	-0.01443436
18	0x3d41a361	0.04727495
19	0xbd351f27	-0.044219162
20	0xbc808a15	-0.015690843
21	0xbd6b0574	-0.057378247
22	0xbc38e7dc	-0.011285748
23	0xbd21fea8	-0.0395495
24	0x3ac57808	0.0015065679
25	0xbd2ac25a	-0.041689254
26	0xbdc202f9	-0.09473223
27	0xbcbd228d	-0.023087764
28	0xbd37db32	-0.044886775
29	0xbe09c487	-0.13453875
30	0xbd15db1a	-0.036585905
31	0xbdb47f0a	-0.08813293
32	0xbdd919b2	-0.10600604
33	0xbd7988e0	-0.06092155
34	0xbdb5f84b	-0.08885249
35	0xbd19afc1	-0.037521128
36	0x3d28af14	0.041182593
37	0xbd6c9ace	-0.05776482
38	0xbd54d600	-0.0519619
39	0x3bd568ac	0.006512722
40	0xbcf30588	-0.029665723
41	0x3cbc2600	0.022967339
42	0xbdea1d7f	-0.11431407
43	0xbc8934ea	-0.016748864
44	0xbc011de9	-0.007880666
45	0xbdd20f43	-0.10256817
46	0xbdec8430	-0.1154865
47	0xbd609060	-0.054825187
48	0xbde88b10	-0.11354649
49	0xbcc0e97d	-0.023548836
50	0xbc5c5513	-0.013448018
51	0x3d0277a4	0.03185238
52	0x3d0349c1	0.03205276
53	0xbba09250	-0.0049002543
54	0x3d426e8f	0.04746872
55	0xbc49be2c	-0.012313407
56	0x3d79e650	0.06101066
57	0x3d8adb3f	0.06780099
58	0x3da0adc2	0.07845642
59	0x3d700c86	0.058605693
60	0x3ceb1cd2	0.028700266
61	0x3d4cd1ce	0.050004773
62	0x3b3cbdd1	0.0028799663
63	0x3d61e045	0.05514552
64	0xbd52f140	-0.051499605
65	0xbd13d4cc	-0.03609161
66	0xbd759344	-0.059954897
67	0x3d825a2d	0.06364856
68	0xbca999f1	-0.020703288
69	0xbd01c447	-0.031681325
70	0x3c083b29	0.008314886
71	0x3ca987bf	0.020694612
72	0x3d1737db	0.036918502
73	0xbd467f46	-0.04846122
74	0x3d23781f	0.03990948
75	0x3dd6b692	0.10484041
76	0x3b1880cd	0.002327013
77	0xbd071f8f	-0.03298908
78	0xbdf82404	-0.121162444
79	0xbd3bdb13	-0.045863222
80	0x3e00296b	0.125158
81	0x3c919dcc	0.017775439
82	0xbd417459	-0.0472301
83	0xbd7f2d52	-0.06229908
84	0xbd907b3b	-0.07054754
85	0x3ca464b8	0.020067558
86	0x3cf5e6f3	0.030017352
87	0xbd71de80	-0.059050083
88	0xbe12a7f0	-0.14321876
89	0xbd876914	-0.06611839
90	0xbd10259e	-0.035192125
91	0xbd4c041d	-0.04980861
92	0xbdf86798	-0.12129134
93	0xbe14cf56	-0.14532217
94	0xbe533b00	-0.20627975
95	0xbcd3e845	-0.02586759
96	0xbe0462e6	-0.12928352
97	0xbe1dc223	-0.15406089
98	0xbe44f1c0	-0.19232845
99	0xbe2938fe	-0.16525647
100	0xbb7d3c73	-0.0038640767
101	0x3d886e13	0.0666162
102	0x3d70d9ee	0.058801584
103	0x3d991eed	0.07476602
104	0xbd284e1b	-0.041090112
105	0x3d2e2a00	0.042520523
106	0x3d5da491	0.05411202
107	0x3d5a523e	0.05330109
108	0x3dac99ba	0.084277585
109	0x3bb3d9b8	0.0054886006
110	0x3d96c5f4	0.07361975
111	0x3d367abb	0.04455064
112	0x3d7c3b4b	0.061579984
113	0xbc87b02d	-0.0165635
114	0x3da490a8	0.080354035
115	0x3d983a08	0.074329436
116	0x3d71d968	0.059045225
117	0x3d878bec	0.06618485
118	0x3d971425	0.07376889
119	0x3d69114d	0.056901265
120	0xbb1473b8	-0.0022651982
121	0x3d502f7f	0.050826546
122	0x3d08cdcb	0.033399384
123	0x3d8214a6	0.063515946
124	0x3d27d68f	0.040976103
125	0xbc2cf566	-0.010556554
126	0x3dac769d	0.08421061
127	0x3bd1f3be	0.00640723
128	0xbd370610	-0.044683516
129	0xbd69c60e	-0.057073645
130	0x3dcd46f5	0.100232996
131	0xbbf90836	-0.007599856
132	0x3c3db8b8	0.011579685
133	0xbc5069eb	-0.012720565
134	0xbd9c9ff5	-0.07647697
135	0x3d3cbcbe	0.046078436
136	0x3d3cd5b5	0.046102244
137	0xbc8429fe	-0.016133305
138	0x3d7f7e43	0.062376272
139	0xbd9a2036	-0.07525675
140	0x3dc70e96	0.09719579
141	0xbc8ce9d4	-0.017201342
142	0x3ce5cc54	0.028051533
143	0xbc93ee81	-0.018058063
144	0x3d11acb5	0.035565097
145	0x3d14caa8	0.03632608
146	0x3bf2984d	0.0074034096
147	0xbc872eb7	-0.016501768
148	0xbd03bc11	-0.032161776
149	0xbc921b86	-0.01783539
150	0x3d1baf15	0.038008768
151	0xbc0daacb	-0.008646677
152	0xbc51fd7a	-0.012816781
153	0xbdaf78c0	-0.08567953
154	0x3d34f1c5	0.044175882
155	0x3cce7753	0.025203383
156	0x3d335b7a	0.04378841
157	0xba89a64f	-0.0010501834
158	0xbda90032	-0.082519904
159	0x3d37ce27	0.044874337
160	0xbd9b21c1	-0.075747974
161	0x3c6eba2f	0.014570757
162	0xbd9b5e6c	-0.07586369
163	0xbd39e950	-0.04538852
164	0xbd5b9863	-0.053612124
165	0xbdc6424d	-0.096806146
166	0xbd4b1754	-0.049582794
167	0xbd80f023	-0.062958024
168	0xbd3f9190	-0.04676968
169	0xbd51fbb1	-0.051265422
170	0x3cf4f454	0.029901661
171	0xbdb82943	-0.08992245
172	0xbdd2f36e	-0.10300337
173	0xbdeeca40	-0.1165967
174	0xbda52ee6	-0.08065586
175	0x3cd9850f	0.026552705
176	0xbccb336e	-0.024804797
177	0xbca782ea	-0.020448167
178	0x3c60dfc8	0.013725229
179	0x3e49cfc2	0.1970816
180	0xbdc536da	-0.09629603
181	0xbd8c6f4f	-0.06857168
182	0xbbcf0e7d	-0.006318866
183	0xbbbbbe86	-0.0057294993
184	0x3e353fc9	0.17700113
185	0xbd969ae0	-0.07353759
186	0xbdb1297a	-0.08650489
187	0xbd6177dd	-0.05504595
188	0xbdf0c9be	-0.11757229
189	0x3e1d1aed	0.15342303
190	0xbd43b64c	-0.047781274
191	0xbdfad1d8	-0.12247056
192	0xbd9cdc4a	-0.07659204
193	0xbdf51f4a	-0.119688585
194	0x3c943c1f	0.018095074
195	0xbc62e675	-0.013848891
196	0xbddc5ab3	-0.10759487
197	0xbdef64fd	-0.11689184
198	0xbddc80b5	-0.107667364
199	0xbd9dab05	-0.07698635
200	0xbcbd7cf0	-0.023130864
201	0xbcc28912	-0.023747
202	0x3ccceca2	0.025015179
203	0xbdc65553	-0.09684243
204	0xba8518c9	-0.0010154481
205	0x3d0aaef4	0.033858255
206	0x3cd6e861	0.026233854
207	0x3cb6f6c6	0.022334468
208	0x3c7fc085	0.015609865
209	0xbb49e9cd	-0.0030809522
210	0xbd29e01b	-0.04147349
211	0xbcf6ed2c	-0.03014239
212	0xbde33030	-0.110931754
213	0xbcb6ffe9	-0.022338824
214	0xbe049b82	-0.12949947
215	0xbdd7f769	-0.105452366
216	0xbd61c63c	-0.05512069
217	0xbcc78e66	-0.024359893
218	0xbe19f425	-0.1503454
219	0xbe0ddf75	-0.13854773
220	0xbd9460e2	-0.072450414
221	0xbdea64fa	-0.11445041
222	0xbe0f6d9d	-0.14006658
223	0xbe1c3796	-0.1525558
224	0xbe1b65cc	-0.15175551
225	0xbbdee0d0	-0.006801702
226	0x3c5fd007	0.013660437
227	0x3daf39e5	0.085559644
228	0xbd03f00d	-0.032211352
229	0x3c9477da	0.018123556
230	0x3d117a61	0.0355171
231	0xbc77918e	-0.015110387
232	0xbc4011b9	-0.011722975
233	0x3ca77a41	0.020444037
234	0xbd750661	-0.059820537
235	0x3d3ff27f	0.04686212
236	0x3d9c21f4	0.076236635
237	0x3d26ecb5	0.040753085
238	0x3dae0912	0.08497824
239	0x3c613284	0.013744954
240	0xbcd11837	-0.025524242
241	0x3d593201	0.053026203
242	0x3c096c52	0.008387642
243	0xbc275422	-0.01021293
244	0x3dacdc63	0.08440473
245	0x3cd638a4	0.026150055
246	0x3babe3fb	0.0052456832
247	0x3d3e8f7f	0.046523567
248	0x3d8673b0	0.065650344
249	0x3ddf96af	0.109174125
250	0x3d408a49	0.04700688
251	0xbc82638f	-0.015916614
252	0x3da1c620	0.078991175
253	0xbceb2e8a	-0.028708715
254	0xbd499724	-0.049216405
255	0xbda85702	-0.082197204

bias f4 [20]
0	0x3dbc00d6	0.09179847
1	0x3b5da34d	0.0033819259
2	0xbd1d246c	-0.038364813
3	0x3d5496a5	0.05190148
4	0x3c55aae8	0.0130412355
5	0xbe1369be	-0.14395806
6	0x3d2f20e6	0.042755984
7	0x3bc30622	0.005951659
8	0xbe04d780	-0.12972832
9	0x3cdb95be	0.026804801
10	0xbd7ee12a	-0.062226452
11	0xbdc74023	-0.0972903
12	0xbd9174f8	-0.07102388
13	0x3c6babbe	0.014384208
14	0xbd25899f	-0.04041445
15	0x3cbb1c54	0.022840656
16	0xb9bb2b2b	-0.00035699582
17	0x3bbdae16	0.005788575
18	0xbcaadbd7	-0.020856781
19	0xbda60029	-0.08105499

weight f4 [60, 320]
0	0xbc3c7c36	-0.011504224
1	0xbcca7ad8	-0.02471678
2	0x3bae4323	0.005318062
3	0xbd93211d	-0.0718405
4	0xbd3ea732	-0.04654617
5	0x3d1bbce9	0.038021956
6	0x3d3359cc	0.04378681
7	0x3b6d021e	0.0036164592
8	0xbce2e031	-0.027694793
9	0xbc4eb042	-0.012615265
10	0x3cf71f0a	0.030166168
11	0x3bc98446	0.0061498014
12	0x3d63edee	0.05564683
13	0x3b229a10	0.0024811067
14	0xbcee6b86	-0.029104006
15	0x3d631659	0.055441234
16	0x3d658740	0.056037188
17	0xbd28c613	-0.041204523
18	0x3d209fda	0.039214946
19	0xbd7fb196	-0.06242522
20	0xbd009c8e	-0.031399302
21	0x3d2463dd	0.0401343
22	0x3d7178c1	0.05895305
23	0xbd045185	-0.032304306
24	0xbca68fcb	-0.020332238
25	0xbd75684c	-0.05991392
26	0xbbf6793f	-0.007521778
27	0xbd19d453	-0.037556004
28	0xbcef2a02	-0.029194836
29	0xbd2e7513	-0.04259212
30	0x3aca8f78	0.0015454134
31	0x3c62542c	0.013814013
32	0x3b840dfb	0.004029987
33	0xbc7801a1	-0.015137107
34	0xbc27bfe2	-0.0102386195
35	0x3d352f73	0.044234704
36	0xbd274662	-0.040838607
37	0xbd44e260	-0.04806745
38	0xbcd9932a	-0.026559431
39	0xbd4b958f	-0.049703177
40	0xbd2cb4a7	-0.04216447
41	0x3c489d15	0.0122444825
42	0xbd134bc2	-0.03596092
43	0x3ae5c97d	0.0017531362
44	0xbd5a7eec	-0.0533437
45	0xbd100e63	-0.03516997
46	0xbcdf70e5	-0.027275512
47	0xbd2595a4	-0.04042591
48	0xbcbec8fa	-0.023289192
49	0x3c879078	0.01654838
50	0x3d84c1fa	0.064823106
51	0xbca4622d	-0.020066345
52	0xbd9432b7	-0.072362356
53	0xbd223686	-0.03960278
54	0x3b59af4a	0.0033216053
55	0x3c9236f5	0.017848471
56	0xbc993ea1	-0.018706622
57	0x3c141eb8	0.009040527
58	0x3d3f339c	0.046680078
59	0x3d594286	0.053041957
60	0xbd069984	-0.032861248
61	0x3c120617	0.008912585
62	0xbcba2717	-0.022723718
63	0xbcdf9196	-0.0272911
64	0xb9e7a020	-0.00044179056
65	0xbb93a278	-0.004505452
66	0x3c28d77a	0.01030528
67	0xbceae5e8	-0.028674081
68	0xbcb4f849	-0.022091048
69	0xbbe05f65	-0.0068473094
70	0x3ccaa519	0.024736928
71	0x3bc7bc84	0.006095471
72	0xbd8803de	-0.066413626
73	0xbcbf1e91	-0.023330005
74	0x3d170ecf	0.036879357
75	0x3ca23b0a	0.019803543
76	0xbd8bbc19	-0.06822986
77	0x3beeaa7e	0.007283508
78	0xbd1b23cb	-0.03787593
79	0x3d523803	0.05132295
80	0x3cad26ad	0.021136606
81	0xbd5f1761	-0.054465655
82	0xbd5a34c4	-0.053272977
83	0x3c4540e5	0.012039398
84	0x3c7a469a	0.015275622
85	0xbd5e477b	-0.054267388
86	0xbd8431c0	-0.064548016
87	0x3c101a5c	0.008795347
88	0xbc4d9284	-0.012547139
89	0x3ce0651f	0.027391968
90	0xbb87ea2c	-0.0041477885
91	0xbccca57a	-0.02498125
92	0xbcd8c1b4	-0.026459552
93	0x3d36428d	0.04449706
94	0xbcc4d613	-0.02402786
95	0x3d422313	0.04739673
96	0xbcc3e15f	-0.023911176
97	0xbd403e53	-0.046934437
98	0xbd864e1d	-0.06557868
99	0x3c79c278	0.015244119
100	0xbd248e1c	-0.04017459
101	0xbd0e0576	-0.034673177
102	0xbbb855ec	-0.005625477
103	0xbd2164af	-0.03940266
104	0xbcf2ed63	-0.02965421
105	0xbc500dc6	-0.012698596
106	0xbc93420f	-0.017975835
107	0xbd9271f1	-0.07150639
108	0xbbea47a5	-0.007149654
109	0x3ddbb003	0.10726931
110	0x3c99f5cb	0.018793961
111	0x3d6408a5	0.055672307
112	0xbcbe0e93	-0.023200309
113	0x3d1c7ae5	0.03820314
114	0x3cfd1fc3	0.030898934
115	0x3cce1532	0.025156591
116	0xbc9c987e	-0.019115683
117	0x3c8e1f52	0.017348919
118	0x3c1ceb44	0.009577576
119	0x3d10a207	0.03531077
120	0xbb813fe1	-0.0039443825
121	0xbcde2b2c	-0.027120195
122	0xbd0f7662	-0.035025008
123	0xbcc57546	-0.024103772
124	0x3cd20010	0.025634795
125	0xbd4d3fe6	-0.050109766
126	0x3c3bfff7	0.011474601
127	0x3c12a628	0.008950748
128	0xbc0e2559	-0.008675897
129	0xbbb0647a	-0.0053830715
130	0x3c46958a	0.012120614
131	0xbd69037a	-0.05688808
132	0x3cc5daf4	0.024152257
133	0x3c8dd28c	0.01731231
134	0x3c471a67	0.012152291
135	0xbd2f22db	-0.04275785
136	0xbcf0fea6	-0.0294183
137	0x3ca1be34	0.019744016
138	0x3d129005	0.03578188
139	0xbd295163	-0.041337382
140	0x3bf11dc0	0.007358283
141	0xbcfd48b0	-0.03091845
142	0xbcd6a276	-0.026200514
143	0x3c61edb5	0.013789584
144	0x3d8ff903	0.07029917
145	0x3d92f6db	0.0717599
146	0xbd1016b6	-0.03517791
147	0xbd26607d	-0.040619362
148	0xbbb452cd	-0.0055030347
149	0xbcb61059	-0.022224592
150	0x3d24d9f5	0.040246923
151	0xbceef71d	-0.029170567
152	0x3d89d8f8	0.06730837
153	0xbd7d434f	-0.06183177
154	0x3da12f43	0.078703426
155	0xbd61d57c	-0.055135235
156	0xbc87d470	-0.01658079
157	0xbd236279	-0.039888833
158	0xbc9b224e	-0.018937256
159	0x3d82c952	0.06386055
160	0xbd5a54f7	-0.053303685
161	0x3cbcb4b7	0.02303539
162	0x3d28d9b3	0.04122324
163	0xbb58198a	-0.0032974207
164	0xbd480833	-0.048835944
165	0xbce8fab8	-0.028439865
166	0xbd30393b	-0.04302333
167	0xbce8b206	-0.0284052
168	0x3bb4ad57	0.005513828
169	0xbd24e7a8	-0.040259987
170	0x3b268ccc	0.0025413511
171	0xbb33c2bd	-0.0027429305
172	0xbcca808e	-0.024719503
173	0x3cbdb15a	0.023155857
174	0x395bc54c	0.00020958966
175	0xbd4d86bd	-0.050177325
176	0x3c5ab4d2	0.013348775
177	0x3cc691d4	0.024239458
178	0x3cb20bc6	0.02173413
179	0xbba311aa	-0.004976471
180	0x3d0e919b	0.03480683
181	0x3d1aafa2	0.037765153
182	0xbcc29651	-0.023753317
183	0x3b3d8799	0.0028919934
184	0x3d4e20e3	0.050324332
185	0x3abbb29c	0.0014320198
186	0x3b9158eb	0.0044356487
187	0xbd100ad2	-0.03516657
188	0xbb95fb22	-0.0045770565
189	0x3c04c1cd	0.008102846
190	0xbc7d5d03	-0.01546407
191	0xbd29f341	-0.04149175
192	0xbc01de83	-0.007926586
193	0xbd003094	-0.031296328
194	0x3d198139	0.037476752
195	0xbd288f41	-0.041152243
196	0xbcdf4fe0	-0.027259767
197	0x3d3e3943	0.046441328
198	0xbc7c8acd	-0.015413952
199	0x3d49428c	0.04913573
200	0xbd446860	-0.047951102
201	0x3d0a33d9	0.033740852
202	0xbcdd9677	-0.027049286
203	0xbb33e9d3	-0.0027452603
204	0xbb154bb1	-0.0022780711
205	0x3c44ffb2	0.012023853
206	0x3d361697	0.044455137
207	0xbcdd61f7	-0.027024252
208	0xbca40a00	-0.0200243
209	0x3c4562d2	0.012047486
210	0xbd1a6aa4	-0.037699357
211	0x3d222a96	0.039591394
212	0x3d824a9a	0.06361885
213	0x3cdca9a9	0.026936369
214	0xbd6e65a3	-0.058202397
215	0xbd27833d	-0.040896643
216	0x3d828ba5	0.06374291
217	0x3ca338fb	0.019924631
218	0x3b3ff4e3	0.002929025
219	0x3d00d17a	0.031449772
220	0x3deff3da	0.11716433
221	0x3a2cf066	0.00065971015
222	0xbd2fbad9	-0.0429028
223	0x3d2de949	0.042458806
224	0xbcc4cde6	-0.024023961
225	0x3c9b2349	0.018937724
226	0xbcc34d0d	-0.023840452
227	0x3d7e1f6d	0.06204169
228	0xbabdbb4f	-0.0014475378
229	0xbd5937ef	-0.053031858
230	0x3d05c64d	0.032659817
231	0x3d102004	0.035186782
232	0xbd2b0f83	-0.04176284
233	0x3bd622fe	0.006534933
234	0x3d191a17	0.037378397
235	0x3de06478	0.10956663
236	0xbc80c186	-0.01571728
237	0xbc402ec0	-0.011729896
238	0x3b0720ab	0.0020618837
239	0xbca103f9	-0.019655215
240	0xbc4c0ccd	-0.012454224
241	0x3b724c77	0.0036971846
242	0x3cf8cf32	0.030372236
243	0xbc43d6b3	-0.011953044
244	0x3c4f4b80	0.012652278
245	0xbd3a2923	-0.045449387
246	0xbd2a4893	-0.04157312
247	0x3d72dd97	0.059293356
248	0x3cd634de	0.026148256
249	0xbd652db7	-0.0559518
250	0x3c7130d3	0.014721113
251	0x3c58d0bd	0.013233361
252	0xbc530b41	-0.012881101
253	0x3aac6bd2	0.0013154692
254	0xbbb3df60	-0.005489275
255	0x3d4d66f7	0.050147023

bias f4 [60]
0	0x3cbc40d7	0.022980137
1	0xbbc69a1f	-0.006060853
2	0xbcbad255	-0.022805372
3	0xbb3ebfc9	-0.0029106012
4	0xbd62cc76	-0.05537077
5	0xbcb3ae4e	-0.0219337
6	0x3c232950	0.00995858
7	0x3d7b066e	0.06128543
8	0x3d5d1bcf	0.0539816
9	0xbc8ca37e	-0.017167803
10	0x3d856fb5	0.06515447
11	0xbd257f5a	-0.040404655
12	0xbd31e662	-0.0434326
13	0x3dae3a68	0.08507234
14	0x3ca426e7	0.020038081
15	0x3d6095d1	0.054830376
16	0x3d9d5261	0.07681728
17	0xbd229287	-0.03969052
18	0x3d77062e	0.060308628
19	0x3d7da398	0.061923593
20	0x3d616c11	0.0550347
21	0x3e16fd50	0.14745069
22	0xbd2c4ad9	-0.042063568
23	0x3d972654	0.073803574
24	0x3c35c953	0.011095363
25	0xbd800cd5	-0.062524475
26	0x3c408d91	0.011752502
27	0x3d581477	0.05275389
28	0x3de79590	0.11307824
29	0x3c075c80	0.0082618
30	0x3c9c4d73	0.0190799
31	0x3ca97f49	0.020690577
32	0xbd019cb9	-0.031643603
33	0xbb275936	-0.0025535352
34	0xbcf7cdb4	-0.030249454
35	0x3d381625	0.044942994
36	0xbc361049	-0.011112281
37	0x3c15b4b1	0.0091373185
38	0xbd926c17	-0.07149523
39	0x3c852613	0.016253507
40	0x3dafcf4d	0.08584461
41	0xbd416e3c	-0.04722427
42	0xbbfc1889	-0.0076933545
43	0x3d09b5c4	0.03362061
44	0x3c54eb49	0.0129955495
45	0xbd16f0dd	-0.0368508
46	0x3cd8bf4e	0.026458409
47	0x3cc1cd7e	0.023657557
48	0xbcf0ea5f	-0.029408632
49	0xbcddcb78	-0.02707456
50	0xbca0de2a	-0.019637186
51	0x3c780a53	0.01513918
52	0xbca734fb	-0.020411005
53	0xbd83e100	-0.064394
54	0x3c80b967	0.015713407
55	0x3d2a1e20	0.041532636
56	0xbd6953ad	-0.056964565
57	0x3db99151	0.0906092
58	0xbd1c81e4	-0.03820981
59	0xbcb2ebbd	-0.021840924

weight f4 [10, 60]
0	0x3df11ad6	0.11772697
1	0xbd8db1f8	-0.069187105
2	0xbd619f76	-0.055083714
3	0xbdfc60be	-0.123231396
4	0xbd80293c	-0.06257865
5	0xbe0a3fd6	-0.13500914
6	0x3db2eff1	0.087371714
7	0x3d67869b	0.056524854
8	0x3de8827e	0.113530144
9	0xbecc101d	-0.39856043
10	0x3eb3d622	0.35124308
11	0x3e58fc94	0.21190101
12	0xbdaca26e	-0.084294185
13	0xbe01c9fa	-0.12674704
14	0x3db9634e	0.09052144
15	0xbd851352	-0.06497826
16	0xbc8a112d	-0.016853893
17	0xbd9a3526	-0.075296685
18	0x3d937829	0.07200653
19	0xbea4cea6	-0.3218891
20	0x39b7e897	0.00035077773
21	0xbe7b904a	-0.2456676
22	0xbdf782e1	-0.1208551
23	0x3d3bc9fa	0.045846917
24	0x3e782898	0.24234235
25	0x3d7fb7e9	0.06243125
26	0x3ce421c9	0.027848141
27	0xbe6a7c27	-0.22898923
28	0xbe9b040f	-0.30276534
29	0x3d820752	0.063490525
30	0xbe1d24c9	-0.15346064
31	0x3dc72614	0.0972406
32	0x3e0525b4	0.13002664
33	0xbd13c318	-0.036074728
34	0x3e0d3d76	0.13792977
35	0x3cbc7b0b	0.02300789
36	0x3e46ffed	0.19433565
37	0xbc8e0cfa	-0.017340172
38	0xbe026e19	-0.12737311
39	0xbd942195	-0.07232968
40	0xbe883aa3	-0.26607236
41	0xbdb905c8	-0.09034306
42	0xbe2b3e3f	-0.16722964
43	0x3e298e1a	0.16558114
44	0xbe08fabe	-0.133769
45	0x3edf6610	0.43632555
46	0x3e9282e8	0.286155
47	0xbd33301d	-0.043747056
48	0xbe08b92e	-0.1335189
49	0x3d8cb9eb	0.068713985
50	0x3ea66631	0.3249984
51	0x3f00338d	0.5007866
52	0x3e4cb8ce	0.19992372
53	0xbe4459eb	-0.19174926
54	0x3db66976	0.08906834
55	0xbe349969	-0.17636646
56	0xbd0dc216	-0.034608923
57	0x3f09414e	0.5361527
58	0xbd559074	-0.052139714
59	0xbe1ba149	-0.15198244
60	0xbd454490	-0.04816109
61	0x3d3df482	0.04637576
62	0xbe762787	-0.24038516
63	0x3e92670c	0.28594244
64	0xbd8f8246	-0.070072696
65	0xbda40e61	-0.08010555
66	0x3e85c7c2	0.26128966
67	0xbd8dc00b	-0.06921395
68	0x3e03e7f3	0.1288145
69	0x3e262890	0.16226411
70	0xbcf17413	-0.029474294
71	0x3d579479	0.05263183
72	0xbd004d1c	-0.031323537
73	0xbd81219d	-0.06305239
74	0xbd1573a2	-0.03648723
75	0x3cc794c5	0.024362931
76	0x3de89518	0.113565624
77	0xbd943df4	-0.07238379
78	0xbd1358c1	-0.035973314
79	0xbe64136e	-0.22273037
80	0xbd614b5a	-0.0550035
81	0xbb96a37f	-0.004597127
82	0xbd250d86	-0.0402961
83	0xbe50b10f	-0.20380042
84	0xbd2e7648	-0.04259327
85	0x3ea915eb	0.33024535
86	0x3dec43f1	0.11536396
87	0xbd981446	-0.07425742
88	0x3ee5641d	0.44802943
89	0x3e9be2b8	0.3044641
90	0x3e447626	0.19185695
91	0xbe80c4c5	-0.25150123
92	0xbde8cb54	-0.11366907
93	0x3d4cb3ff	0.049976345
94	0xbc817f7c	-0.01580786
95	0xbdfa1405	-0.1221085
96	0xbdc632d6	-0.09677665
97	0xbe49e7c2	-0.19717315
98	0xbda58f2e	-0.0808395
99	0xbcdaa8ef	-0.026691882
100	0x3f289d76	0.65865266
101	0xbcef6eaf	-0.029227583
102	0x3f00981c	0.502321
103	0xbe125192	-0.14288929
104	0xbe09ada7	-0.1344515
105	0xbd69eb93	-0.057109427
106	0xbe7b5653	-0.24544649
107	0xbd44cd14	-0.04804714
108	0x3e244860	0.16043234
109	0xbe51c08b	-0.20483606
110	0x3d215867	0.039390948
111	0xbebffd83	-0.37498102
112	0xbdd9beb7	-0.10632079
113	0xbe342bff	-0.17594908
114	0xbe87ee86	-0.26549166
115	0x3db913b8	0.09036964
116	0x3e5daf85	0.21648987
117	0xba10f0d7	-0.0005529052
118	0x3d348651	0.044073407
119	0x3f10e3be	0.56597507
120	0x3df2d6ee	0.11857401
121	0xbd8a9238	-0.0676617
122	0x3da2ee21	0.07955576
123	0x3e7803f9	0.24220265
124	0xbd2d6556	-0.04233297
125	0xbde625c4	-0.11237672
126	0x3ec017b0	0.37518072
127	0xbea4ec15	-0.32211366
128	0xbe1ce5d6	-0.1532205
129	0x3e2960cd	0.16540833
130	0x3e7bfeae	0.24608871
131	0x3dc2fe9d	0.0952122
132	0x3ef738ea	0.4828561
133	0xbdee495d	-0.11635087
134	0xbbced061	-0.006311462
135	0x3c85bb99	0.016324805
136	0xbe2285b9	-0.15871324
137	0xbd487e9c	-0.04894887
138	0x3e2d8afe	0.16947553
139	0xbe850e59	-0.2598751
140	0x3e7bd512	0.24592999
141	0xbc95660c	-0.018237136
142	0xbd23ca05	-0.039987583
143	0xbe4a3900	-0.19748306
144	0xbd3b3dc1	-0.04571319
145	0xbe0b0421	-0.13575794
146	0x3d93bdb5	0.07213918
147	0x3c811887	0.015758766
148	0xbdd9df73	-0.10638323
149	0x3e8fd0bd	0.28088942
150	0xbd8ea0ee	-0.06964289
151	0xbd8f0c5e	-0.06984781
152	0x3e072257	0.13196693
153	0x3d625d9c	0.055265054
154	0xbcbfc3eb	-0.02340885
155	0x3dca8c11	0.09889997
156	0xbdea9530	-0.114542365
157	0x3e246b54	0.16056567
158	0x3d61fef2	0.055174775
159	0xbcdc34a3	-0.026880568
160	0x3db9d7df	0.09074377
161	0x3eb5629a	0.3542679
162	0x3ce1be0f	0.027556447
163	0x3dfea75d	0.12434266
164	0x3e184d8e	0.14873335
165	0xbd8cc7d6	-0.06874053
166	0xbd688d97	-0.056775656
167	0xbd937b95	-0.07201306
168	0xbe169956	-0.1470693
169	0x3ebc9547	0.3683264
170	0xbd4b07ab	-0.04956786
171	0xbe5d828e	-0.21631834
172	0xbe2a9dd4	-0.16661769
173	0x3bb3fba3	0.005492644
174	0x3e518890	0.2046225
175	0xbe8df31a	-0.27724534
176	0xbd5cfe37	-0.053953376
177	0x3d636441	0.05551553
178	0xbc09e00f	-0.008415236
179	0xbe6d5ae5	-0.23179205
180	0xbddc0493	-0.1074306
181	0x3e93d334	0.28872073
182	0xbe2f16b5	-0.17098506
183	0xbb84b61e	-0.0040500304
184	0xbd7177fb	-0.058952313
185	0x3e198583	0.14992337
186	0x3d1b7a4e	0.037958436
187	0xbe4dc4d0	-0.2009461
188	0xbd6e661d	-0.05820285
189	0xbd006e16	-0.031354986
190	0xbcc09bc6	-0.023511779
191	0xbee89ed1	-0.45433667
192	0xbdabccca	-0.0838867
193	0x3deec885	0.1165934
194	0xbd336bd0	-0.04380399
195	0x3def0043	0.11669972
196	0x3ddb3337	0.10703128
197	0x3d283e3b	0.041074973
198	0x3d526185	0.051362533
199	0x3ec30744	0.3809148
200	0xbe58b1ba	-0.21161547
201	0xbdf7c3a6	-0.12097864
202	0x3b952929	0.004552026
203	0x3e4c636f	0.19959806
204	0x3d1f82a7	0.03894296
205	0xbdc7b675	-0.09751598
206	0xbd0b0ece	-0.033949666
207	0x3edc2f6b	0.43004927
208	0xbdc7a47a	-0.09748168
209	0xbed077bf	-0.4071636
210	0xbda2f9e7	-0.07957821
211	0xbe85f14e	-0.26160663
212	0xbcd390dd	-0.025825912
213	0xbe64287f	-0.22281073
214	0xbc24d266	-0.0100599285
215	0x3e166410	0.14686608
216	0xbdc1c4e8	-0.09461385
217	0xbd099996	-0.033593737
218	0xbd2e6d07	-0.042584445
219	0xbdbba20b	-0.091617666
220	0x3da151b8	0.07876915
221	0xbd191218	-0.03737077
222	0xbc4338df	-0.011915415
223	0x3e571796	0.21005091
224	0xbe46ca78	-0.19413173
225	0xbd175280	-0.036943913
226	0xbe72d16a	-0.23712698
227	0x3dd9dbee	0.106376514
228	0x3e158387	0.14600955
229	0xbd6cda10	-0.057825148
230	0xbe5a2f38	-0.21307075
231	0xbd9f457b	-0.07776924
232	0xbc6b51ce	-0.0143627655
233	0xbd856289	-0.06512935
234	0x3e044d20	0.12920046
235	0xbe1d1bfb	-0.15342705
236	0xbda2d970	-0.07951629
237	0xbd6898db	-0.0567864
238	0x3dd846d8	0.105603874
239	0x3c9c2dd3	0.01906482
240	0xbc33ea8c	-0.010981213
241	0xbe640cee	-0.22270557
242	0xbdcf1823	-0.101120256
243	0x3a5d25bd	0.00084361044
244	0xbd9de51a	-0.07709713
245	0x3da62b73	0.08113756
246	0xbe2dc66f	-0.16970228
247	0x3e5707fc	0.2099914
248	0xbe69e45d	-0.2284102
249	0x3f4b4352	0.793996
250	0x3cd18119	0.025574254
251	0x3ed80f4a	0.42199165
252	0x3dcd8940	0.10035944
253	0xbe828b8c	-0.2549709
254	0xbda76f86	-0.08175568
255	0x3d2e96b9	0.04262421

bias f4 [10]
0	0xbb5b395a	-0.0033450932
1	0x3de1bd9f	0.110224955
2	0xbdf7e4b0	-0.121041656
3	0x3db97ac8	0.09056622
4	0xbded508f	-0.11587631
5	0xbe65e809	-0.22451796
6	0xbd8d52bf	-0.06900548
7	0x3e5033ff	0.20332335
8	0x3ee503e6	0.44729537
9	0xbe625b9a	-0.22105256
